…
I0305 01:27:25.690457  3878 net.cpp:49] Initializing net from parameters: 
name: "oxyMSDog"
state {
  phase: TRAIN
}
layer {
  name: "data"
  type: "ImageData"
  top: "data"
  top: "label"
  include {
    phase: TRAIN
  }
  transform_param {
    mirror: true
    crop_size: 224
    mean_value: 104
    mean_value: 117
    mean_value: 123
  }
  image_data_param {
    source: "examples/oxyMSDog/Datasets/train.txt"
    batch_size: 64
    new_height: 256
    new_width: 256
    root_folder: "/home/ouxinyu/caffe-master/examples/oxyMSDog/Datasets/Images/"
  }
}
layer {
  name: "conv1_1"
  type: "Convolution"
  bottom: "data"
  top: "conv1_1"
  param {
    lr_mult: 0
    decay_mult: 0
  }
  param {
    lr_mult: 0
    decay_mult: 0
  }
  convolution_param {
    num_output: 64
    pad: 1
    kernel_size: 3
  }
}
layer {
  name: "relu1_1"
  type: "ReLU"
  bottom: "conv1_1"
  top: "conv1_1"
}
layer {
  name: "conv1_2"
  type: "Convolution"
  bottom: "conv1_1"
  top: "conv1_2"
  param {
    lr_mult: 0
    decay_mult: 0
  }
  param {
    lr_mult: 0
    decay_mult: 0
  }
  convolution_param {
    num_output: 64
    pad: 1
    kernel_size: 3
  }
}
layer {
  name: "relu1_2"
  type: "ReLU"
  bottom: "conv1_2"
  top: "conv1_2"
}
layer {
  name: "pool1"
  type: "Pooling"
  bottom: "conv1_2"
  top: "pool1"
  pooling_param {
    pool: MAX
    kernel_size: 2
    stride: 2
  }
}
layer {
  name: "conv2_1"
  type: "Convolution"
  bottom: "pool1"
  top: "conv2_1"
  param {
    lr_mult: 0
    decay_mult: 0
  }
  param {
    lr_mult: 0
    decay_mult: 0
  }
  convolution_param {
    num_output: 128
    pad: 1
    kernel_size: 3
  }
}
layer {
  name: "relu2_1"
  type: "ReLU"
  bottom: "conv2_1"
  top: "conv2_1"
}
layer {
  name: "conv2_2"
  type: "Convolution"
  bottom: "conv2_1"
  top: "conv2_2"
  param {
    lr_mult: 0
    decay_mult: 0
  }
  param {
    lr_mult: 0
    decay_mult: 0
  }
  convolution_param {
    num_output: 128
    pad: 1
    kernel_size: 3
  }
}
layer {
  name: "relu2_2"
  type: "ReLU"
  bottom: "conv2_2"
  top: "conv2_2"
}
layer {
  name: "pool2"
  type: "Pooling"
  bottom: "conv2_2"
  top: "pool2"
  pooling_param {
    pool: MAX
    kernel_size: 2
    stride: 2
  }
}
layer {
  name: "conv3_1"
  type: "Convolution"
  bottom: "pool2"
  top: "conv3_1"
  param {
    lr_mult: 1
    decay_mult: 1
  }
  param {
    lr_mult: 2
    decay_mult: 0
  }
  convolution_param {
    num_output: 256
    pad: 1
    kernel_size: 3
  }
}
layer {
  name: "relu3_1"
  type: "ReLU"
  bottom: "conv3_1"
  top: "conv3_1"
}
layer {
  name: "conv3_2"
  type: "Convolution"
  bottom: "conv3_1"
  top: "conv3_2"
  param {
    lr_mult: 1
    decay_mult: 1
  }
  param {
    lr_mult: 2
    decay_mult: 0
  }
  convolution_param {
    num_output: 256
    pad: 1
    kernel_size: 3
  }
}
layer {
  name: "relu3_2"
  type: "ReLU"
  bottom: "conv3_2"
  top: "conv3_2"
}
layer {
  name: "conv3_3"
  type: "Convolution"
  bottom: "conv3_2"
  top: "conv3_3"
  param {
    lr_mult: 1
    decay_mult: 1
  }
  param {
    lr_mult: 2
    decay_mult: 0
  }
  convolution_param {
    num_output: 256
    pad: 1
    kernel_size: 3
  }
}
layer {
  name: "relu3_3"
  type: "ReLU"
  bottom: "conv3_3"
  top: "conv3_3"
}
layer {
  name: "pool3"
  type: "Pooling"
  bottom: "conv3_3"
  top: "pool3"
  pooling_param {
    pool: MAX
    kernel_size: 2
    stride: 2
  }
}
layer {
  name: "conv4_1"
  type: "Convolution"
  bottom: "pool3"
  top: "conv4_1"
  param {
    lr_mult: 1
    decay_mult: 1
  }
  param {
    lr_mult: 2
    decay_mult: 0
  }
  convolution_param {
    num_output: 512
    pad: 1
    kernel_size: 3
  }
}
layer {
  name: "relu4_1"
  type: "ReLU"
  bottom: "conv4_1"
  top: "conv4_1"
}
layer {
  name: "conv4_2"
  type: "Convolution"
  bottom: "conv4_1"
  top: "conv4_2"
  param {
    lr_mult: 1
    decay_mult: 1
  }
  param {
    lr_mult: 2
    decay_mult: 0
  }
  convolution_param {
    num_output: 512
    pad: 1
    kernel_size: 3
  }
}
layer {
  name: "relu4_2"
  type: "ReLU"
  bottom: "conv4_2"
  top: "conv4_2"
}
layer {
  name: "conv4_3"
  type: "Convolution"
  bottom: "conv4_2"
  top: "conv4_3"
  param {
    lr_mult: 1
    decay_mult: 1
  }
  param {
    lr_mult: 2
    decay_mult: 0
  }
  convolution_param {
    num_output: 512
    pad: 1
    kernel_size: 3
  }
}
layer {
  name: "relu4_3"
  type: "ReLU"
  bottom: "conv4_3"
  top: "conv4_3"
}
layer {
  name: "pool4"
  type: "Pooling"
  bottom: "conv4_3"
  top: "pool4"
  pooling_param {
    pool: MAX
    kernel_size: 2
    stride: 2
  }
}
layer {
  name: "conv5_1"
  type: "Convolution"
  bottom: "pool4"
  top: "conv5_1"
  param {
    lr_mult: 1
    decay_mult: 1
  }
  param {
    lr_mult: 2
    decay_mult: 0
  }
  convolution_param {
    num_output: 512
    pad: 1
    kernel_size: 3
  }
}
layer {
  name: "relu5_1"
  type: "ReLU"
  bottom: "conv5_1"
  top: "conv5_1"
}
layer {
  name: "conv5_2"
  type: "Convolution"
  bottom: "conv5_1"
  top: "conv5_2"
  param {
    lr_mult: 1
    decay_mult: 1
  }
  param {
    lr_mult: 2
    decay_mult: 0
  }
  convolution_param {
    num_output: 512
    pad: 1
    kernel_size: 3
  }
}
layer {
  name: "relu5_2"
  type: "ReLU"
  bottom: "conv5_2"
  top: "conv5_2"
}
layer {
  name: "conv5_3"
  type: "Convolution"
  bottom: "conv5_2"
  top: "conv5_3"
  param {
    lr_mult: 1
    decay_mult: 1
  }
  param {
    lr_mult: 2
    decay_mult: 0
  }
  convolution_param {
    num_output: 512
    pad: 1
    kernel_size: 3
  }
}
layer {
  name: "relu5_3"
  type: "ReLU"
  bottom: "conv5_3"
  top: "conv5_3"
}
layer {
  name: "pool5"
  type: "Pooling"
  bottom: "conv5_3"
  top: "pool5"
  pooling_param {
    pool: MAX
    kernel_size: 2
    stride: 2
  }
}
layer {
  name: "fc6"
  type: "InnerProduct"
  bottom: "pool5"
  top: "fc6"
  param {
    lr_mult: 1
    decay_mult: 1
  }
  param {
    lr_mult: 2
    decay_mult: 0
  }
  inner_product_param {
    num_output: 4096
  }
}
layer {
  name: "relu6"
  type: "ReLU"
  bottom: "fc6"
  top: "fc6"
}
layer {
  name: "drop6"
  type: "Dropout"
  bottom: "fc6"
  top: "fc6"
  dropout_param {
    dropout_ratio: 0.5
  }
}
layer {
  name: "fc7"
  type: "InnerProduct"
  bottom: "fc6"
  top: "fc7"
  param {
    lr_mult: 1
    decay_mult: 1
  }
  param {
    lr_mult: 2
    decay_mult: 0
  }
  inner_product_param {
    num_output: 4096
  }
}
layer {
  name: "relu7"
  type: "ReLU"
  bottom: "fc7"
  top: "fc7"
}
layer {
  name: "drop7"
  type: "Dropout"
  bottom: "fc7"
  top: "fc7"
  dropout_param {
    dropout_ratio: 0.5
  }
}
layer {
  name: "fc8_oxySensitive"
  type: "InnerProduct"
  bottom: "fc7"
  top: "fc8_oxySensitive"
  param {
    lr_mult: 10
    decay_mult: 1
  }
  param {
    lr_mult: 20
    decay_mult: 0
  }
  inner_product_param {
    num_output: 344
    weight_filler {
      type: "gaussian"
      std: 0.01
    }
    bias_filler {
      type: "constant"
      value: 0
    }
  }
}
layer {
  name: "loss"
  type: "SoftmaxWithLoss"
  bottom: "fc8_oxySensitive"
  bottom: "label"
  top: "loss"
}
I0305 01:27:25.690618  3878 layer_factory.hpp:77] Creating layer data
I0305 01:27:25.690660  3878 net.cpp:91] Creating Layer data
I0305 01:27:25.690668  3878 net.cpp:399] data -> data
I0305 01:27:25.690704  3878 net.cpp:399] data -> label
I0305 01:27:25.691100  3878 image_data_layer.cpp:38] Opening file examples/oxyMSDog/Datasets/train.txt
I0305 01:27:25.729480  3878 image_data_layer.cpp:53] A total of 90248 images.
I0305 01:27:25.919345  3878 image_data_layer.cpp:80] output data size: 64,3,224,224
I0305 01:27:26.047112  3878 net.cpp:141] Setting up data
I0305 01:27:26.047180  3878 net.cpp:148] Top shape: 64 3 224 224 (9633792)
I0305 01:27:26.047193  3878 net.cpp:148] Top shape: 64 (64)
I0305 01:27:26.047197  3878 net.cpp:156] Memory required for data: 38535424
I0305 01:27:26.047214  3878 layer_factory.hpp:77] Creating layer conv1_1
I0305 01:27:26.047253  3878 net.cpp:91] Creating Layer conv1_1
I0305 01:27:26.047266  3878 net.cpp:425] conv1_1 <- data
I0305 01:27:26.047293  3878 net.cpp:399] conv1_1 -> conv1_1
I0305 01:27:26.281805  3878 net.cpp:141] Setting up conv1_1
I0305 01:27:26.281851  3878 net.cpp:148] Top shape: 64 64 224 224 (205520896)
I0305 01:27:26.281857  3878 net.cpp:156] Memory required for data: 860619008
I0305 01:27:26.281885  3878 layer_factory.hpp:77] Creating layer relu1_1
I0305 01:27:26.281905  3878 net.cpp:91] Creating Layer relu1_1
I0305 01:27:26.281910  3878 net.cpp:425] relu1_1 <- conv1_1
I0305 01:27:26.281919  3878 net.cpp:386] relu1_1 -> conv1_1 (in-place)
I0305 01:27:26.282238  3878 net.cpp:141] Setting up relu1_1
I0305 01:27:26.282253  3878 net.cpp:148] Top shape: 64 64 224 224 (205520896)
I0305 01:27:26.282258  3878 net.cpp:156] Memory required for data: 1682702592
I0305 01:27:26.282263  3878 layer_factory.hpp:77] Creating layer conv1_2
I0305 01:27:26.282276  3878 net.cpp:91] Creating Layer conv1_2
I0305 01:27:26.282281  3878 net.cpp:425] conv1_2 <- conv1_1
I0305 01:27:26.282289  3878 net.cpp:399] conv1_2 -> conv1_2
I0305 01:27:26.283315  3878 net.cpp:141] Setting up conv1_2
I0305 01:27:26.283332  3878 net.cpp:148] Top shape: 64 64 224 224 (205520896)
I0305 01:27:26.283337  3878 net.cpp:156] Memory required for data: 2504786176
I0305 01:27:26.283349  3878 layer_factory.hpp:77] Creating layer relu1_2
I0305 01:27:26.283357  3878 net.cpp:91] Creating Layer relu1_2
I0305 01:27:26.283362  3878 net.cpp:425] relu1_2 <- conv1_2
I0305 01:27:26.283368  3878 net.cpp:386] relu1_2 -> conv1_2 (in-place)
I0305 01:27:26.283650  3878 net.cpp:141] Setting up relu1_2
I0305 01:27:26.283665  3878 net.cpp:148] Top shape: 64 64 224 224 (205520896)
I0305 01:27:26.283670  3878 net.cpp:156] Memory required for data: 3326869760
I0305 01:27:26.283674  3878 layer_factory.hpp:77] Creating layer pool1
I0305 01:27:26.283686  3878 net.cpp:91] Creating Layer pool1
I0305 01:27:26.283690  3878 net.cpp:425] pool1 <- conv1_2
I0305 01:27:26.283697  3878 net.cpp:399] pool1 -> pool1
I0305 01:27:26.283756  3878 net.cpp:141] Setting up pool1
I0305 01:27:26.283767  3878 net.cpp:148] Top shape: 64 64 112 112 (51380224)
I0305 01:27:26.283771  3878 net.cpp:156] Memory required for data: 3532390656
I0305 01:27:26.283776  3878 layer_factory.hpp:77] Creating layer conv2_1
I0305 01:27:26.283784  3878 net.cpp:91] Creating Layer conv2_1
I0305 01:27:26.283789  3878 net.cpp:425] conv2_1 <- pool1
I0305 01:27:26.283795  3878 net.cpp:399] conv2_1 -> conv2_1
I0305 01:27:26.285940  3878 net.cpp:141] Setting up conv2_1
I0305 01:27:26.285958  3878 net.cpp:148] Top shape: 64 128 112 112 (102760448)
I0305 01:27:26.285962  3878 net.cpp:156] Memory required for data: 3943432448
I0305 01:27:26.285974  3878 layer_factory.hpp:77] Creating layer relu2_1
I0305 01:27:26.285981  3878 net.cpp:91] Creating Layer relu2_1
I0305 01:27:26.285986  3878 net.cpp:425] relu2_1 <- conv2_1
I0305 01:27:26.285992  3878 net.cpp:386] relu2_1 -> conv2_1 (in-place)
I0305 01:27:26.286159  3878 net.cpp:141] Setting up relu2_1
I0305 01:27:26.286171  3878 net.cpp:148] Top shape: 64 128 112 112 (102760448)
I0305 01:27:26.286175  3878 net.cpp:156] Memory required for data: 4354474240
I0305 01:27:26.286180  3878 layer_factory.hpp:77] Creating layer conv2_2
I0305 01:27:26.286190  3878 net.cpp:91] Creating Layer conv2_2
I0305 01:27:26.286195  3878 net.cpp:425] conv2_2 <- conv2_1
I0305 01:27:26.286201  3878 net.cpp:399] conv2_2 -> conv2_2
I0305 01:27:26.287255  3878 net.cpp:141] Setting up conv2_2
I0305 01:27:26.287271  3878 net.cpp:148] Top shape: 64 128 112 112 (102760448)
I0305 01:27:26.287274  3878 net.cpp:156] Memory required for data: 4765516032
I0305 01:27:26.287282  3878 layer_factory.hpp:77] Creating layer relu2_2
I0305 01:27:26.287289  3878 net.cpp:91] Creating Layer relu2_2
I0305 01:27:26.287293  3878 net.cpp:425] relu2_2 <- conv2_2
I0305 01:27:26.287302  3878 net.cpp:386] relu2_2 -> conv2_2 (in-place)
I0305 01:27:26.287592  3878 net.cpp:141] Setting up relu2_2
I0305 01:27:26.287607  3878 net.cpp:148] Top shape: 64 128 112 112 (102760448)
I0305 01:27:26.287611  3878 net.cpp:156] Memory required for data: 5176557824
I0305 01:27:26.287616  3878 layer_factory.hpp:77] Creating layer pool2
I0305 01:27:26.287624  3878 net.cpp:91] Creating Layer pool2
I0305 01:27:26.287628  3878 net.cpp:425] pool2 <- conv2_2
I0305 01:27:26.287636  3878 net.cpp:399] pool2 -> pool2
I0305 01:27:26.287678  3878 net.cpp:141] Setting up pool2
I0305 01:27:26.287694  3878 net.cpp:148] Top shape: 64 128 56 56 (25690112)
I0305 01:27:26.287698  3878 net.cpp:156] Memory required for data: 5279318272
I0305 01:27:26.287703  3878 layer_factory.hpp:77] Creating layer conv3_1
I0305 01:27:26.287711  3878 net.cpp:91] Creating Layer conv3_1
I0305 01:27:26.287715  3878 net.cpp:425] conv3_1 <- pool2
I0305 01:27:26.287721  3878 net.cpp:399] conv3_1 -> conv3_1
I0305 01:27:26.289297  3878 net.cpp:141] Setting up conv3_1
I0305 01:27:26.289314  3878 net.cpp:148] Top shape: 64 256 56 56 (51380224)
I0305 01:27:26.289319  3878 net.cpp:156] Memory required for data: 5484839168
I0305 01:27:26.289332  3878 layer_factory.hpp:77] Creating layer relu3_1
I0305 01:27:26.289340  3878 net.cpp:91] Creating Layer relu3_1
I0305 01:27:26.289343  3878 net.cpp:425] relu3_1 <- conv3_1
I0305 01:27:26.289350  3878 net.cpp:386] relu3_1 -> conv3_1 (in-place)
I0305 01:27:26.289665  3878 net.cpp:141] Setting up relu3_1
I0305 01:27:26.289680  3878 net.cpp:148] Top shape: 64 256 56 56 (51380224)
I0305 01:27:26.289685  3878 net.cpp:156] Memory required for data: 5690360064
I0305 01:27:26.289688  3878 layer_factory.hpp:77] Creating layer conv3_2
I0305 01:27:26.289700  3878 net.cpp:91] Creating Layer conv3_2
I0305 01:27:26.289705  3878 net.cpp:425] conv3_2 <- conv3_1
I0305 01:27:26.289711  3878 net.cpp:399] conv3_2 -> conv3_2
I0305 01:27:26.292196  3878 net.cpp:141] Setting up conv3_2
I0305 01:27:26.292212  3878 net.cpp:148] Top shape: 64 256 56 56 (51380224)
I0305 01:27:26.292217  3878 net.cpp:156] Memory required for data: 5895880960
I0305 01:27:26.292223  3878 layer_factory.hpp:77] Creating layer relu3_2
I0305 01:27:26.292232  3878 net.cpp:91] Creating Layer relu3_2
I0305 01:27:26.292237  3878 net.cpp:425] relu3_2 <- conv3_2
I0305 01:27:26.292243  3878 net.cpp:386] relu3_2 -> conv3_2 (in-place)
I0305 01:27:26.292429  3878 net.cpp:141] Setting up relu3_2
I0305 01:27:26.292443  3878 net.cpp:148] Top shape: 64 256 56 56 (51380224)
I0305 01:27:26.292445  3878 net.cpp:156] Memory required for data: 6101401856
I0305 01:27:26.292449  3878 layer_factory.hpp:77] Creating layer conv3_3
I0305 01:27:26.292460  3878 net.cpp:91] Creating Layer conv3_3
I0305 01:27:26.292465  3878 net.cpp:425] conv3_3 <- conv3_2
I0305 01:27:26.292482  3878 net.cpp:399] conv3_3 -> conv3_3
I0305 01:27:26.295025  3878 net.cpp:141] Setting up conv3_3
I0305 01:27:26.295043  3878 net.cpp:148] Top shape: 64 256 56 56 (51380224)
I0305 01:27:26.295048  3878 net.cpp:156] Memory required for data: 6306922752
I0305 01:27:26.295055  3878 layer_factory.hpp:77] Creating layer relu3_3
I0305 01:27:26.295065  3878 net.cpp:91] Creating Layer relu3_3
I0305 01:27:26.295069  3878 net.cpp:425] relu3_3 <- conv3_3
I0305 01:27:26.295078  3878 net.cpp:386] relu3_3 -> conv3_3 (in-place)
I0305 01:27:26.295402  3878 net.cpp:141] Setting up relu3_3
I0305 01:27:26.295416  3878 net.cpp:148] Top shape: 64 256 56 56 (51380224)
I0305 01:27:26.295421  3878 net.cpp:156] Memory required for data: 6512443648
I0305 01:27:26.295425  3878 layer_factory.hpp:77] Creating layer pool3
I0305 01:27:26.295435  3878 net.cpp:91] Creating Layer pool3
I0305 01:27:26.295440  3878 net.cpp:425] pool3 <- conv3_3
I0305 01:27:26.295446  3878 net.cpp:399] pool3 -> pool3
I0305 01:27:26.295496  3878 net.cpp:141] Setting up pool3
I0305 01:27:26.295503  3878 net.cpp:148] Top shape: 64 256 28 28 (12845056)
I0305 01:27:26.295506  3878 net.cpp:156] Memory required for data: 6563823872
I0305 01:27:26.295511  3878 layer_factory.hpp:77] Creating layer conv4_1
I0305 01:27:26.295521  3878 net.cpp:91] Creating Layer conv4_1
I0305 01:27:26.295524  3878 net.cpp:425] conv4_1 <- pool3
I0305 01:27:26.295531  3878 net.cpp:399] conv4_1 -> conv4_1
I0305 01:27:26.299525  3878 net.cpp:141] Setting up conv4_1
I0305 01:27:26.299549  3878 net.cpp:148] Top shape: 64 512 28 28 (25690112)
I0305 01:27:26.299553  3878 net.cpp:156] Memory required for data: 6666584320
I0305 01:27:26.299561  3878 layer_factory.hpp:77] Creating layer relu4_1
I0305 01:27:26.299569  3878 net.cpp:91] Creating Layer relu4_1
I0305 01:27:26.299574  3878 net.cpp:425] relu4_1 <- conv4_1
I0305 01:27:26.299581  3878 net.cpp:386] relu4_1 -> conv4_1 (in-place)
I0305 01:27:26.299897  3878 net.cpp:141] Setting up relu4_1
I0305 01:27:26.299912  3878 net.cpp:148] Top shape: 64 512 28 28 (25690112)
I0305 01:27:26.299916  3878 net.cpp:156] Memory required for data: 6769344768
I0305 01:27:26.299921  3878 layer_factory.hpp:77] Creating layer conv4_2
I0305 01:27:26.299932  3878 net.cpp:91] Creating Layer conv4_2
I0305 01:27:26.299937  3878 net.cpp:425] conv4_2 <- conv4_1
I0305 01:27:26.299945  3878 net.cpp:399] conv4_2 -> conv4_2
I0305 01:27:26.306536  3878 net.cpp:141] Setting up conv4_2
I0305 01:27:26.306584  3878 net.cpp:148] Top shape: 64 512 28 28 (25690112)
I0305 01:27:26.306591  3878 net.cpp:156] Memory required for data: 6872105216
I0305 01:27:26.306629  3878 layer_factory.hpp:77] Creating layer relu4_2
I0305 01:27:26.306646  3878 net.cpp:91] Creating Layer relu4_2
I0305 01:27:26.306653  3878 net.cpp:425] relu4_2 <- conv4_2
I0305 01:27:26.306663  3878 net.cpp:386] relu4_2 -> conv4_2 (in-place)
I0305 01:27:26.306861  3878 net.cpp:141] Setting up relu4_2
I0305 01:27:26.306874  3878 net.cpp:148] Top shape: 64 512 28 28 (25690112)
I0305 01:27:26.306879  3878 net.cpp:156] Memory required for data: 6974865664
I0305 01:27:26.306884  3878 layer_factory.hpp:77] Creating layer conv4_3
I0305 01:27:26.306897  3878 net.cpp:91] Creating Layer conv4_3
I0305 01:27:26.306901  3878 net.cpp:425] conv4_3 <- conv4_2
I0305 01:27:26.306908  3878 net.cpp:399] conv4_3 -> conv4_3
I0305 01:27:26.313603  3878 net.cpp:141] Setting up conv4_3
I0305 01:27:26.313648  3878 net.cpp:148] Top shape: 64 512 28 28 (25690112)
I0305 01:27:26.313653  3878 net.cpp:156] Memory required for data: 7077626112
I0305 01:27:26.313669  3878 layer_factory.hpp:77] Creating layer relu4_3
I0305 01:27:26.313684  3878 net.cpp:91] Creating Layer relu4_3
I0305 01:27:26.313690  3878 net.cpp:425] relu4_3 <- conv4_3
I0305 01:27:26.313701  3878 net.cpp:386] relu4_3 -> conv4_3 (in-place)
I0305 01:27:26.314034  3878 net.cpp:141] Setting up relu4_3
I0305 01:27:26.314050  3878 net.cpp:148] Top shape: 64 512 28 28 (25690112)
I0305 01:27:26.314054  3878 net.cpp:156] Memory required for data: 7180386560
I0305 01:27:26.314059  3878 layer_factory.hpp:77] Creating layer pool4
I0305 01:27:26.314069  3878 net.cpp:91] Creating Layer pool4
I0305 01:27:26.314072  3878 net.cpp:425] pool4 <- conv4_3
I0305 01:27:26.314082  3878 net.cpp:399] pool4 -> pool4
I0305 01:27:26.314134  3878 net.cpp:141] Setting up pool4
I0305 01:27:26.314146  3878 net.cpp:148] Top shape: 64 512 14 14 (6422528)
I0305 01:27:26.314148  3878 net.cpp:156] Memory required for data: 7206076672
I0305 01:27:26.314152  3878 layer_factory.hpp:77] Creating layer conv5_1
I0305 01:27:26.314165  3878 net.cpp:91] Creating Layer conv5_1
I0305 01:27:26.314169  3878 net.cpp:425] conv5_1 <- pool4
I0305 01:27:26.314175  3878 net.cpp:399] conv5_1 -> conv5_1
I0305 01:27:26.320931  3878 net.cpp:141] Setting up conv5_1
I0305 01:27:26.320976  3878 net.cpp:148] Top shape: 64 512 14 14 (6422528)
I0305 01:27:26.320982  3878 net.cpp:156] Memory required for data: 7231766784
I0305 01:27:26.320997  3878 layer_factory.hpp:77] Creating layer relu5_1
I0305 01:27:26.321013  3878 net.cpp:91] Creating Layer relu5_1
I0305 01:27:26.321020  3878 net.cpp:425] relu5_1 <- conv5_1
I0305 01:27:26.321030  3878 net.cpp:386] relu5_1 -> conv5_1 (in-place)
I0305 01:27:26.321355  3878 net.cpp:141] Setting up relu5_1
I0305 01:27:26.321372  3878 net.cpp:148] Top shape: 64 512 14 14 (6422528)
I0305 01:27:26.321375  3878 net.cpp:156] Memory required for data: 7257456896
I0305 01:27:26.321380  3878 layer_factory.hpp:77] Creating layer conv5_2
I0305 01:27:26.321398  3878 net.cpp:91] Creating Layer conv5_2
I0305 01:27:26.321403  3878 net.cpp:425] conv5_2 <- conv5_1
I0305 01:27:26.321409  3878 net.cpp:399] conv5_2 -> conv5_2
I0305 01:27:26.328064  3878 net.cpp:141] Setting up conv5_2
I0305 01:27:26.328111  3878 net.cpp:148] Top shape: 64 512 14 14 (6422528)
I0305 01:27:26.328117  3878 net.cpp:156] Memory required for data: 7283147008
I0305 01:27:26.328132  3878 layer_factory.hpp:77] Creating layer relu5_2
I0305 01:27:26.328148  3878 net.cpp:91] Creating Layer relu5_2
I0305 01:27:26.328155  3878 net.cpp:425] relu5_2 <- conv5_2
I0305 01:27:26.328164  3878 net.cpp:386] relu5_2 -> conv5_2 (in-place)
I0305 01:27:26.328356  3878 net.cpp:141] Setting up relu5_2
I0305 01:27:26.328369  3878 net.cpp:148] Top shape: 64 512 14 14 (6422528)
I0305 01:27:26.328372  3878 net.cpp:156] Memory required for data: 7308837120
I0305 01:27:26.328377  3878 layer_factory.hpp:77] Creating layer conv5_3
I0305 01:27:26.328392  3878 net.cpp:91] Creating Layer conv5_3
I0305 01:27:26.328397  3878 net.cpp:425] conv5_3 <- conv5_2
I0305 01:27:26.328403  3878 net.cpp:399] conv5_3 -> conv5_3
I0305 01:27:26.335189  3878 net.cpp:141] Setting up conv5_3
I0305 01:27:26.335232  3878 net.cpp:148] Top shape: 64 512 14 14 (6422528)
I0305 01:27:26.335239  3878 net.cpp:156] Memory required for data: 7334527232
I0305 01:27:26.335253  3878 layer_factory.hpp:77] Creating layer relu5_3
I0305 01:27:26.335268  3878 net.cpp:91] Creating Layer relu5_3
I0305 01:27:26.335274  3878 net.cpp:425] relu5_3 <- conv5_3
I0305 01:27:26.335286  3878 net.cpp:386] relu5_3 -> conv5_3 (in-place)
I0305 01:27:26.335614  3878 net.cpp:141] Setting up relu5_3
I0305 01:27:26.335629  3878 net.cpp:148] Top shape: 64 512 14 14 (6422528)
I0305 01:27:26.335633  3878 net.cpp:156] Memory required for data: 7360217344
I0305 01:27:26.335638  3878 layer_factory.hpp:77] Creating layer pool5
I0305 01:27:26.335647  3878 net.cpp:91] Creating Layer pool5
I0305 01:27:26.335651  3878 net.cpp:425] pool5 <- conv5_3
I0305 01:27:26.335661  3878 net.cpp:399] pool5 -> pool5
I0305 01:27:26.335721  3878 net.cpp:141] Setting up pool5
I0305 01:27:26.335741  3878 net.cpp:148] Top shape: 64 512 7 7 (1605632)
I0305 01:27:26.335746  3878 net.cpp:156] Memory required for data: 7366639872
I0305 01:27:26.335748  3878 layer_factory.hpp:77] Creating layer fc6
I0305 01:27:26.335769  3878 net.cpp:91] Creating Layer fc6
I0305 01:27:26.335774  3878 net.cpp:425] fc6 <- pool5
I0305 01:27:26.335780  3878 net.cpp:399] fc6 -> fc6
I0305 01:27:26.618151  3878 net.cpp:141] Setting up fc6
I0305 01:27:26.618206  3878 net.cpp:148] Top shape: 64 4096 (262144)
I0305 01:27:26.618211  3878 net.cpp:156] Memory required for data: 7367688448
I0305 01:27:26.618224  3878 layer_factory.hpp:77] Creating layer relu6
I0305 01:27:26.618242  3878 net.cpp:91] Creating Layer relu6
I0305 01:27:26.618249  3878 net.cpp:425] relu6 <- fc6
I0305 01:27:26.618259  3878 net.cpp:386] relu6 -> fc6 (in-place)
I0305 01:27:26.618551  3878 net.cpp:141] Setting up relu6
I0305 01:27:26.618566  3878 net.cpp:148] Top shape: 64 4096 (262144)
I0305 01:27:26.618569  3878 net.cpp:156] Memory required for data: 7368737024
I0305 01:27:26.618573  3878 layer_factory.hpp:77] Creating layer drop6
I0305 01:27:26.618582  3878 net.cpp:91] Creating Layer drop6
I0305 01:27:26.618587  3878 net.cpp:425] drop6 <- fc6
I0305 01:27:26.618593  3878 net.cpp:386] drop6 -> fc6 (in-place)
I0305 01:27:26.618630  3878 net.cpp:141] Setting up drop6
I0305 01:27:26.618636  3878 net.cpp:148] Top shape: 64 4096 (262144)
I0305 01:27:26.618639  3878 net.cpp:156] Memory required for data: 7369785600
I0305 01:27:26.618643  3878 layer_factory.hpp:77] Creating layer fc7
I0305 01:27:26.618654  3878 net.cpp:91] Creating Layer fc7
I0305 01:27:26.618659  3878 net.cpp:425] fc7 <- fc6
I0305 01:27:26.618664  3878 net.cpp:399] fc7 -> fc7
I0305 01:27:26.666335  3878 net.cpp:141] Setting up fc7
I0305 01:27:26.666390  3878 net.cpp:148] Top shape: 64 4096 (262144)
I0305 01:27:26.666395  3878 net.cpp:156] Memory required for data: 7370834176
I0305 01:27:26.666431  3878 layer_factory.hpp:77] Creating layer relu7
I0305 01:27:26.666455  3878 net.cpp:91] Creating Layer relu7
I0305 01:27:26.666477  3878 net.cpp:425] relu7 <- fc7
I0305 01:27:26.666488  3878 net.cpp:386] relu7 -> fc7 (in-place)
I0305 01:27:26.667742  3878 net.cpp:141] Setting up relu7
I0305 01:27:26.667758  3878 net.cpp:148] Top shape: 64 4096 (262144)
I0305 01:27:26.667762  3878 net.cpp:156] Memory required for data: 7371882752
I0305 01:27:26.667767  3878 layer_factory.hpp:77] Creating layer drop7
I0305 01:27:26.667788  3878 net.cpp:91] Creating Layer drop7
I0305 01:27:26.667793  3878 net.cpp:425] drop7 <- fc7
I0305 01:27:26.667798  3878 net.cpp:386] drop7 -> fc7 (in-place)
I0305 01:27:26.667836  3878 net.cpp:141] Setting up drop7
I0305 01:27:26.667843  3878 net.cpp:148] Top shape: 64 4096 (262144)
I0305 01:27:26.667846  3878 net.cpp:156] Memory required for data: 7372931328
I0305 01:27:26.667850  3878 layer_factory.hpp:77] Creating layer fc8_oxySensitive
I0305 01:27:26.667860  3878 net.cpp:91] Creating Layer fc8_oxySensitive
I0305 01:27:26.667863  3878 net.cpp:425] fc8_oxySensitive <- fc7
I0305 01:27:26.667870  3878 net.cpp:399] fc8_oxySensitive -> fc8_oxySensitive
I0305 01:27:26.710472  3878 net.cpp:141] Setting up fc8_oxySensitive
I0305 01:27:26.710501  3878 net.cpp:148] Top shape: 64 344 (22016)
I0305 01:27:26.710506  3878 net.cpp:156] Memory required for data: 7373019392
I0305 01:27:26.710517  3878 layer_factory.hpp:77] Creating layer loss
I0305 01:27:26.710530  3878 net.cpp:91] Creating Layer loss
I0305 01:27:26.710536  3878 net.cpp:425] loss <- fc8_oxySensitive
I0305 01:27:26.710542  3878 net.cpp:425] loss <- label
I0305 01:27:26.710551  3878 net.cpp:399] loss -> loss
I0305 01:27:26.710578  3878 layer_factory.hpp:77] Creating layer loss
…
I0305 01:27:26.712996  3878 net.cpp:49] Initializing net from parameters: 
name: "oxyMSDog"
state {
  phase: TEST
}
layer {
  name: "data"
  type: "ImageData"
  top: "data"
  top: "label"
  include {
    phase: TEST
  }
  transform_param {
    mirror: false
    crop_size: 224
    mean_value: 104
    mean_value: 117
    mean_value: 123
  }
  image_data_param {
    source: "examples/oxyMSDog/Datasets/val.txt"
    batch_size: 50
    new_height: 256
    new_width: 256
    root_folder: "/home/ouxinyu/caffe-master/examples/oxyMSDog/Datasets/Images/"
  }
}
layer {
  name: "conv1_1"
  type: "Convolution"
  bottom: "data"
  top: "conv1_1"
  param {
    lr_mult: 0
    decay_mult: 0
  }
  param {
    lr_mult: 0
    decay_mult: 0
  }
  convolution_param {
    num_output: 64
    pad: 1
    kernel_size: 3
  }
}
layer {
  name: "relu1_1"
  type: "ReLU"
  bottom: "conv1_1"
  top: "conv1_1"
}
layer {
  name: "conv1_2"
  type: "Convolution"
  bottom: "conv1_1"
  top: "conv1_2"
  param {
    lr_mult: 0
    decay_mult: 0
  }
  param {
    lr_mult: 0
    decay_mult: 0
  }
  convolution_param {
    num_output: 64
    pad: 1
    kernel_size: 3
  }
}
layer {
  name: "relu1_2"
  type: "ReLU"
  bottom: "conv1_2"
  top: "conv1_2"
}
layer {
  name: "pool1"
  type: "Pooling"
  bottom: "conv1_2"
  top: "pool1"
  pooling_param {
    pool: MAX
    kernel_size: 2
    stride: 2
  }
}
layer {
  name: "conv2_1"
  type: "Convolution"
  bottom: "pool1"
  top: "conv2_1"
  param {
    lr_mult: 0
    decay_mult: 0
  }
  param {
    lr_mult: 0
    decay_mult: 0
  }
  convolution_param {
    num_output: 128
    pad: 1
    kernel_size: 3
  }
}
layer {
  name: "relu2_1"
  type: "ReLU"
  bottom: "conv2_1"
  top: "conv2_1"
}
layer {
  name: "conv2_2"
  type: "Convolution"
  bottom: "conv2_1"
  top: "conv2_2"
  param {
    lr_mult: 0
    decay_mult: 0
  }
  param {
    lr_mult: 0
    decay_mult: 0
  }
  convolution_param {
    num_output: 128
    pad: 1
    kernel_size: 3
  }
}
layer {
  name: "relu2_2"
  type: "ReLU"
  bottom: "conv2_2"
  top: "conv2_2"
}
layer {
  name: "pool2"
  type: "Pooling"
  bottom: "conv2_2"
  top: "pool2"
  pooling_param {
    pool: MAX
    kernel_size: 2
    stride: 2
  }
}
layer {
  name: "conv3_1"
  type: "Convolution"
  bottom: "pool2"
  top: "conv3_1"
  param {
    lr_mult: 1
    decay_mult: 1
  }
  param {
    lr_mult: 2
    decay_mult: 0
  }
  convolution_param {
    num_output: 256
    pad: 1
    kernel_size: 3
  }
}
layer {
  name: "relu3_1"
  type: "ReLU"
  bottom: "conv3_1"
  top: "conv3_1"
}
layer {
  name: "conv3_2"
  type: "Convolution"
  bottom: "conv3_1"
  top: "conv3_2"
  param {
    lr_mult: 1
    decay_mult: 1
  }
  param {
    lr_mult: 2
    decay_mult: 0
  }
  convolution_param {
    num_output: 256
    pad: 1
    kernel_size: 3
  }
}
layer {
  name: "relu3_2"
  type: "ReLU"
  bottom: "conv3_2"
  top: "conv3_2"
}
layer {
  name: "conv3_3"
  type: "Convolution"
  bottom: "conv3_2"
  top: "conv3_3"
  param {
    lr_mult: 1
    decay_mult: 1
  }
  param {
    lr_mult: 2
    decay_mult: 0
  }
  convolution_param {
    num_output: 256
    pad: 1
    kernel_size: 3
  }
}
layer {
  name: "relu3_3"
  type: "ReLU"
  bottom: "conv3_3"
  top: "conv3_3"
}
layer {
  name: "pool3"
  type: "Pooling"
  bottom: "conv3_3"
  top: "pool3"
  pooling_param {
    pool: MAX
    kernel_size: 2
    stride: 2
  }
}
layer {
  name: "conv4_1"
  type: "Convolution"
  bottom: "pool3"
  top: "conv4_1"
  param {
    lr_mult: 1
    decay_mult: 1
  }
  param {
    lr_mult: 2
    decay_mult: 0
  }
  convolution_param {
    num_output: 512
    pad: 1
    kernel_size: 3
  }
}
layer {
  name: "relu4_1"
  type: "ReLU"
  bottom: "conv4_1"
  top: "conv4_1"
}
layer {
  name: "conv4_2"
  type: "Convolution"
  bottom: "conv4_1"
  top: "conv4_2"
  param {
    lr_mult: 1
    decay_mult: 1
  }
  param {
    lr_mult: 2
    decay_mult: 0
  }
  convolution_param {
    num_output: 512
    pad: 1
    kernel_size: 3
  }
}
layer {
  name: "relu4_2"
  type: "ReLU"
  bottom: "conv4_2"
  top: "conv4_2"
}
layer {
  name: "conv4_3"
  type: "Convolution"
  bottom: "conv4_2"
  top: "conv4_3"
  param {
    lr_mult: 1
    decay_mult: 1
  }
  param {
    lr_mult: 2
    decay_mult: 0
  }
  convolution_param {
    num_output: 512
    pad: 1
    kernel_size: 3
  }
}
layer {
  name: "relu4_3"
  type: "ReLU"
  bottom: "conv4_3"
  top: "conv4_3"
}
layer {
  name: "pool4"
  type: "Pooling"
  bottom: "conv4_3"
  top: "pool4"
  pooling_param {
    pool: MAX
    kernel_size: 2
    stride: 2
  }
}
layer {
  name: "conv5_1"
  type: "Convolution"
  bottom: "pool4"
  top: "conv5_1"
  param {
    lr_mult: 1
    decay_mult: 1
  }
  param {
    lr_mult: 2
    decay_mult: 0
  }
  convolution_param {
    num_output: 512
    pad: 1
    kernel_size: 3
  }
}
layer {
  name: "relu5_1"
  type: "ReLU"
  bottom: "conv5_1"
  top: "conv5_1"
}
layer {
  name: "conv5_2"
  type: "Convolution"
  bottom: "conv5_1"
  top: "conv5_2"
  param {
    lr_mult: 1
    decay_mult: 1
  }
  param {
    lr_mult: 2
    decay_mult: 0
  }
  convolution_param {
    num_output: 512
    pad: 1
    kernel_size: 3
  }
}
layer {
  name: "relu5_2"
  type: "ReLU"
  bottom: "conv5_2"
  top: "conv5_2"
}
layer {
  name: "conv5_3"
  type: "Convolution"
  bottom: "conv5_2"
  top: "conv5_3"
  param {
    lr_mult: 1
    decay_mult: 1
  }
  param {
    lr_mult: 2
    decay_mult: 0
  }
  convolution_param {
    num_output: 512
    pad: 1
    kernel_size: 3
  }
}
layer {
  name: "relu5_3"
  type: "ReLU"
  bottom: "conv5_3"
  top: "conv5_3"
}
layer {
  name: "pool5"
  type: "Pooling"
  bottom: "conv5_3"
  top: "pool5"
  pooling_param {
    pool: MAX
    kernel_size: 2
    stride: 2
  }
}
layer {
  name: "fc6"
  type: "InnerProduct"
  bottom: "pool5"
  top: "fc6"
  param {
    lr_mult: 1
    decay_mult: 1
  }
  param {
    lr_mult: 2
    decay_mult: 0
  }
  inner_product_param {
    num_output: 4096
  }
}
layer {
  name: "relu6"
  type: "ReLU"
  bottom: "fc6"
  top: "fc6"
}
layer {
  name: "drop6"
  type: "Dropout"
  bottom: "fc6"
  top: "fc6"
  dropout_param {
    dropout_ratio: 0.5
  }
}
layer {
  name: "fc7"
  type: "InnerProduct"
  bottom: "fc6"
  top: "fc7"
  param {
    lr_mult: 1
    decay_mult: 1
  }
  param {
    lr_mult: 2
    decay_mult: 0
  }
  inner_product_param {
    num_output: 4096
  }
}
layer {
  name: "relu7"
  type: "ReLU"
  bottom: "fc7"
  top: "fc7"
}
layer {
  name: "drop7"
  type: "Dropout"
  bottom: "fc7"
  top: "fc7"
  dropout_param {
    dropout_ratio: 0.5
  }
}
layer {
  name: "fc8_oxySensitive"
  type: "InnerProduct"
  bottom: "fc7"
  top: "fc8_oxySensitive"
  param {
    lr_mult: 10
    decay_mult: 1
  }
  param {
    lr_mult: 20
    decay_mult: 0
  }
  inner_product_param {
    num_output: 344
    weight_filler {
      type: "gaussian"
      std: 0.01
    }
    bias_filler {
      type: "constant"
      value: 0
    }
  }
}
layer {
  name: "loss"
  type: "SoftmaxWithLoss"
  bottom: "fc8_oxySensitive"
  bottom: "label"
  top: "loss"
}
layer {
  name: "accuracy"
  type: "Accuracy"
  bottom: "fc8_oxySensitive"
  bottom: "label"
  top: "accuracy"
  include {
    phase: TEST
  }
}
I0305 01:27:26.713172  3878 layer_factory.hpp:77] Creating layer data
I0305 01:27:26.713191  3878 net.cpp:91] Creating Layer data
I0305 01:27:26.713196  3878 net.cpp:399] data -> data
I0305 01:27:26.713207  3878 net.cpp:399] data -> label
I0305 01:27:26.713217  3878 image_data_layer.cpp:38] Opening file examples/oxyMSDog/Datasets/val.txt
I0305 01:27:26.730087  3878 image_data_layer.cpp:53] A total of 38679 images.
I0305 01:27:26.730834  3878 image_data_layer.cpp:80] output data size: 50,3,224,224
I0305 01:27:26.813452  3878 net.cpp:141] Setting up data
I0305 01:27:26.813503  3878 net.cpp:148] Top shape: 50 3 224 224 (7526400)
I0305 01:27:26.813515  3878 net.cpp:148] Top shape: 50 (50)
I0305 01:27:26.813520  3878 net.cpp:156] Memory required for data: 30105800
I0305 01:27:26.813530  3878 layer_factory.hpp:77] Creating layer label_data_1_split
I0305 01:27:26.813560  3878 net.cpp:91] Creating Layer label_data_1_split
I0305 01:27:26.813565  3878 net.cpp:425] label_data_1_split <- label
I0305 01:27:26.813578  3878 net.cpp:399] label_data_1_split -> label_data_1_split_0
I0305 01:27:26.813594  3878 net.cpp:399] label_data_1_split -> label_data_1_split_1
I0305 01:27:26.813807  3878 net.cpp:141] Setting up label_data_1_split
I0305 01:27:26.813819  3878 net.cpp:148] Top shape: 50 (50)
I0305 01:27:26.813823  3878 net.cpp:148] Top shape: 50 (50)
I0305 01:27:26.813827  3878 net.cpp:156] Memory required for data: 30106200
I0305 01:27:26.813832  3878 layer_factory.hpp:77] Creating layer conv1_1
I0305 01:27:26.813849  3878 net.cpp:91] Creating Layer conv1_1
I0305 01:27:26.813853  3878 net.cpp:425] conv1_1 <- data
I0305 01:27:26.813863  3878 net.cpp:399] conv1_1 -> conv1_1
I0305 01:27:26.815510  3878 net.cpp:141] Setting up conv1_1
I0305 01:27:26.815527  3878 net.cpp:148] Top shape: 50 64 224 224 (160563200)
I0305 01:27:26.815532  3878 net.cpp:156] Memory required for data: 672359000
I0305 01:27:26.815547  3878 layer_factory.hpp:77] Creating layer relu1_1
I0305 01:27:26.815557  3878 net.cpp:91] Creating Layer relu1_1
I0305 01:27:26.815560  3878 net.cpp:425] relu1_1 <- conv1_1
I0305 01:27:26.815567  3878 net.cpp:386] relu1_1 -> conv1_1 (in-place)
I0305 01:27:26.816018  3878 net.cpp:141] Setting up relu1_1
I0305 01:27:26.816033  3878 net.cpp:148] Top shape: 50 64 224 224 (160563200)
I0305 01:27:26.816037  3878 net.cpp:156] Memory required for data: 1314611800
I0305 01:27:26.816042  3878 layer_factory.hpp:77] Creating layer conv1_2
I0305 01:27:26.816053  3878 net.cpp:91] Creating Layer conv1_2
I0305 01:27:26.816057  3878 net.cpp:425] conv1_2 <- conv1_1
I0305 01:27:26.816067  3878 net.cpp:399] conv1_2 -> conv1_2
I0305 01:27:26.830198  3878 net.cpp:141] Setting up conv1_2
I0305 01:27:26.830234  3878 net.cpp:148] Top shape: 50 64 224 224 (160563200)
I0305 01:27:26.830243  3878 net.cpp:156] Memory required for data: 1956864600
I0305 01:27:26.830270  3878 layer_factory.hpp:77] Creating layer relu1_2
I0305 01:27:26.830288  3878 net.cpp:91] Creating Layer relu1_2
I0305 01:27:26.830298  3878 net.cpp:425] relu1_2 <- conv1_2
I0305 01:27:26.830312  3878 net.cpp:386] relu1_2 -> conv1_2 (in-place)
I0305 01:27:26.830678  3878 net.cpp:141] Setting up relu1_2
I0305 01:27:26.830693  3878 net.cpp:148] Top shape: 50 64 224 224 (160563200)
I0305 01:27:26.830698  3878 net.cpp:156] Memory required for data: 2599117400
I0305 01:27:26.830701  3878 layer_factory.hpp:77] Creating layer pool1
I0305 01:27:26.830713  3878 net.cpp:91] Creating Layer pool1
I0305 01:27:26.830718  3878 net.cpp:425] pool1 <- conv1_2
I0305 01:27:26.830725  3878 net.cpp:399] pool1 -> pool1
I0305 01:27:26.830783  3878 net.cpp:141] Setting up pool1
I0305 01:27:26.830790  3878 net.cpp:148] Top shape: 50 64 112 112 (40140800)
I0305 01:27:26.830795  3878 net.cpp:156] Memory required for data: 2759680600
I0305 01:27:26.830797  3878 layer_factory.hpp:77] Creating layer conv2_1
I0305 01:27:26.830808  3878 net.cpp:91] Creating Layer conv2_1
I0305 01:27:26.830812  3878 net.cpp:425] conv2_1 <- pool1
I0305 01:27:26.830821  3878 net.cpp:399] conv2_1 -> conv2_1
I0305 01:27:26.832574  3878 net.cpp:141] Setting up conv2_1
I0305 01:27:26.832592  3878 net.cpp:148] Top shape: 50 128 112 112 (80281600)
I0305 01:27:26.832595  3878 net.cpp:156] Memory required for data: 3080807000
I0305 01:27:26.832609  3878 layer_factory.hpp:77] Creating layer relu2_1
I0305 01:27:26.832618  3878 net.cpp:91] Creating Layer relu2_1
I0305 01:27:26.832623  3878 net.cpp:425] relu2_1 <- conv2_1
I0305 01:27:26.832630  3878 net.cpp:386] relu2_1 -> conv2_1 (in-place)
I0305 01:27:26.832823  3878 net.cpp:141] Setting up relu2_1
I0305 01:27:26.832836  3878 net.cpp:148] Top shape: 50 128 112 112 (80281600)
I0305 01:27:26.832841  3878 net.cpp:156] Memory required for data: 3401933400
I0305 01:27:26.832845  3878 layer_factory.hpp:77] Creating layer conv2_2
I0305 01:27:26.832856  3878 net.cpp:91] Creating Layer conv2_2
I0305 01:27:26.832860  3878 net.cpp:425] conv2_2 <- conv2_1
I0305 01:27:26.832869  3878 net.cpp:399] conv2_2 -> conv2_2
I0305 01:27:26.834086  3878 net.cpp:141] Setting up conv2_2
I0305 01:27:26.834103  3878 net.cpp:148] Top shape: 50 128 112 112 (80281600)
I0305 01:27:26.834108  3878 net.cpp:156] Memory required for data: 3723059800
I0305 01:27:26.834115  3878 layer_factory.hpp:77] Creating layer relu2_2
I0305 01:27:26.834122  3878 net.cpp:91] Creating Layer relu2_2
I0305 01:27:26.834126  3878 net.cpp:425] relu2_2 <- conv2_2
I0305 01:27:26.834134  3878 net.cpp:386] relu2_2 -> conv2_2 (in-place)
I0305 01:27:26.834465  3878 net.cpp:141] Setting up relu2_2
I0305 01:27:26.834480  3878 net.cpp:148] Top shape: 50 128 112 112 (80281600)
I0305 01:27:26.834483  3878 net.cpp:156] Memory required for data: 4044186200
I0305 01:27:26.834487  3878 layer_factory.hpp:77] Creating layer pool2
I0305 01:27:26.834497  3878 net.cpp:91] Creating Layer pool2
I0305 01:27:26.834501  3878 net.cpp:425] pool2 <- conv2_2
I0305 01:27:26.834507  3878 net.cpp:399] pool2 -> pool2
I0305 01:27:26.834563  3878 net.cpp:141] Setting up pool2
I0305 01:27:26.834569  3878 net.cpp:148] Top shape: 50 128 56 56 (20070400)
I0305 01:27:26.834573  3878 net.cpp:156] Memory required for data: 4124467800
I0305 01:27:26.834576  3878 layer_factory.hpp:77] Creating layer conv3_1
I0305 01:27:26.834586  3878 net.cpp:91] Creating Layer conv3_1
I0305 01:27:26.834590  3878 net.cpp:425] conv3_1 <- pool2
I0305 01:27:26.834596  3878 net.cpp:399] conv3_1 -> conv3_1
I0305 01:27:26.836390  3878 net.cpp:141] Setting up conv3_1
I0305 01:27:26.836407  3878 net.cpp:148] Top shape: 50 256 56 56 (40140800)
I0305 01:27:26.836412  3878 net.cpp:156] Memory required for data: 4285031000
I0305 01:27:26.836423  3878 layer_factory.hpp:77] Creating layer relu3_1
I0305 01:27:26.836431  3878 net.cpp:91] Creating Layer relu3_1
I0305 01:27:26.836436  3878 net.cpp:425] relu3_1 <- conv3_1
I0305 01:27:26.836442  3878 net.cpp:386] relu3_1 -> conv3_1 (in-place)
I0305 01:27:26.836774  3878 net.cpp:141] Setting up relu3_1
I0305 01:27:26.836789  3878 net.cpp:148] Top shape: 50 256 56 56 (40140800)
I0305 01:27:26.836793  3878 net.cpp:156] Memory required for data: 4445594200
I0305 01:27:26.836798  3878 layer_factory.hpp:77] Creating layer conv3_2
I0305 01:27:26.836809  3878 net.cpp:91] Creating Layer conv3_2
I0305 01:27:26.836814  3878 net.cpp:425] conv3_2 <- conv3_1
I0305 01:27:26.836823  3878 net.cpp:399] conv3_2 -> conv3_2
I0305 01:27:26.839357  3878 net.cpp:141] Setting up conv3_2
I0305 01:27:26.839375  3878 net.cpp:148] Top shape: 50 256 56 56 (40140800)
I0305 01:27:26.839380  3878 net.cpp:156] Memory required for data: 4606157400
I0305 01:27:26.839386  3878 layer_factory.hpp:77] Creating layer relu3_2
I0305 01:27:26.839395  3878 net.cpp:91] Creating Layer relu3_2
I0305 01:27:26.839401  3878 net.cpp:425] relu3_2 <- conv3_2
I0305 01:27:26.839407  3878 net.cpp:386] relu3_2 -> conv3_2 (in-place)
I0305 01:27:26.839603  3878 net.cpp:141] Setting up relu3_2
I0305 01:27:26.839615  3878 net.cpp:148] Top shape: 50 256 56 56 (40140800)
I0305 01:27:26.839619  3878 net.cpp:156] Memory required for data: 4766720600
I0305 01:27:26.839624  3878 layer_factory.hpp:77] Creating layer conv3_3
I0305 01:27:26.839638  3878 net.cpp:91] Creating Layer conv3_3
I0305 01:27:26.839643  3878 net.cpp:425] conv3_3 <- conv3_2
I0305 01:27:26.839649  3878 net.cpp:399] conv3_3 -> conv3_3
I0305 01:27:26.842339  3878 net.cpp:141] Setting up conv3_3
I0305 01:27:26.842355  3878 net.cpp:148] Top shape: 50 256 56 56 (40140800)
I0305 01:27:26.842360  3878 net.cpp:156] Memory required for data: 4927283800
I0305 01:27:26.842368  3878 layer_factory.hpp:77] Creating layer relu3_3
I0305 01:27:26.842377  3878 net.cpp:91] Creating Layer relu3_3
I0305 01:27:26.842381  3878 net.cpp:425] relu3_3 <- conv3_3
I0305 01:27:26.842387  3878 net.cpp:386] relu3_3 -> conv3_3 (in-place)
I0305 01:27:26.842730  3878 net.cpp:141] Setting up relu3_3
I0305 01:27:26.842744  3878 net.cpp:148] Top shape: 50 256 56 56 (40140800)
I0305 01:27:26.842748  3878 net.cpp:156] Memory required for data: 5087847000
I0305 01:27:26.842753  3878 layer_factory.hpp:77] Creating layer pool3
I0305 01:27:26.842763  3878 net.cpp:91] Creating Layer pool3
I0305 01:27:26.842768  3878 net.cpp:425] pool3 <- conv3_3
I0305 01:27:26.842777  3878 net.cpp:399] pool3 -> pool3
I0305 01:27:26.842831  3878 net.cpp:141] Setting up pool3
I0305 01:27:26.842839  3878 net.cpp:148] Top shape: 50 256 28 28 (10035200)
I0305 01:27:26.842841  3878 net.cpp:156] Memory required for data: 5127987800
I0305 01:27:26.842845  3878 layer_factory.hpp:77] Creating layer conv4_1
I0305 01:27:26.842856  3878 net.cpp:91] Creating Layer conv4_1
I0305 01:27:26.842861  3878 net.cpp:425] conv4_1 <- pool3
I0305 01:27:26.842869  3878 net.cpp:399] conv4_1 -> conv4_1
I0305 01:27:26.846596  3878 net.cpp:141] Setting up conv4_1
I0305 01:27:26.846618  3878 net.cpp:148] Top shape: 50 512 28 28 (20070400)
I0305 01:27:26.846622  3878 net.cpp:156] Memory required for data: 5208269400
I0305 01:27:26.846631  3878 layer_factory.hpp:77] Creating layer relu4_1
I0305 01:27:26.846637  3878 net.cpp:91] Creating Layer relu4_1
I0305 01:27:26.846642  3878 net.cpp:425] relu4_1 <- conv4_1
I0305 01:27:26.846648  3878 net.cpp:386] relu4_1 -> conv4_1 (in-place)
I0305 01:27:26.847023  3878 net.cpp:141] Setting up relu4_1
I0305 01:27:26.847046  3878 net.cpp:148] Top shape: 50 512 28 28 (20070400)
I0305 01:27:26.847050  3878 net.cpp:156] Memory required for data: 5288551000
I0305 01:27:26.847054  3878 layer_factory.hpp:77] Creating layer conv4_2
I0305 01:27:26.847065  3878 net.cpp:91] Creating Layer conv4_2
I0305 01:27:26.847069  3878 net.cpp:425] conv4_2 <- conv4_1
I0305 01:27:26.847076  3878 net.cpp:399] conv4_2 -> conv4_2
I0305 01:27:26.854074  3878 net.cpp:141] Setting up conv4_2
I0305 01:27:26.854120  3878 net.cpp:148] Top shape: 50 512 28 28 (20070400)
I0305 01:27:26.854126  3878 net.cpp:156] Memory required for data: 5368832600
I0305 01:27:26.854152  3878 layer_factory.hpp:77] Creating layer relu4_2
I0305 01:27:26.854166  3878 net.cpp:91] Creating Layer relu4_2
I0305 01:27:26.854173  3878 net.cpp:425] relu4_2 <- conv4_2
I0305 01:27:26.854184  3878 net.cpp:386] relu4_2 -> conv4_2 (in-place)
I0305 01:27:26.854387  3878 net.cpp:141] Setting up relu4_2
I0305 01:27:26.854399  3878 net.cpp:148] Top shape: 50 512 28 28 (20070400)
I0305 01:27:26.854403  3878 net.cpp:156] Memory required for data: 5449114200
I0305 01:27:26.854408  3878 layer_factory.hpp:77] Creating layer conv4_3
I0305 01:27:26.854421  3878 net.cpp:91] Creating Layer conv4_3
I0305 01:27:26.854425  3878 net.cpp:425] conv4_3 <- conv4_2
I0305 01:27:26.854434  3878 net.cpp:399] conv4_3 -> conv4_3
I0305 01:27:26.861726  3878 net.cpp:141] Setting up conv4_3
I0305 01:27:26.861775  3878 net.cpp:148] Top shape: 50 512 28 28 (20070400)
I0305 01:27:26.861781  3878 net.cpp:156] Memory required for data: 5529395800
I0305 01:27:26.861795  3878 layer_factory.hpp:77] Creating layer relu4_3
I0305 01:27:26.861811  3878 net.cpp:91] Creating Layer relu4_3
I0305 01:27:26.861819  3878 net.cpp:425] relu4_3 <- conv4_3
I0305 01:27:26.861829  3878 net.cpp:386] relu4_3 -> conv4_3 (in-place)
I0305 01:27:26.862184  3878 net.cpp:141] Setting up relu4_3
I0305 01:27:26.862198  3878 net.cpp:148] Top shape: 50 512 28 28 (20070400)
I0305 01:27:26.862202  3878 net.cpp:156] Memory required for data: 5609677400
I0305 01:27:26.862206  3878 layer_factory.hpp:77] Creating layer pool4
I0305 01:27:26.862216  3878 net.cpp:91] Creating Layer pool4
I0305 01:27:26.862221  3878 net.cpp:425] pool4 <- conv4_3
I0305 01:27:26.862231  3878 net.cpp:399] pool4 -> pool4
I0305 01:27:26.862289  3878 net.cpp:141] Setting up pool4
I0305 01:27:26.862296  3878 net.cpp:148] Top shape: 50 512 14 14 (5017600)
I0305 01:27:26.862299  3878 net.cpp:156] Memory required for data: 5629747800
I0305 01:27:26.862303  3878 layer_factory.hpp:77] Creating layer conv5_1
I0305 01:27:26.862318  3878 net.cpp:91] Creating Layer conv5_1
I0305 01:27:26.862323  3878 net.cpp:425] conv5_1 <- pool4
I0305 01:27:26.862329  3878 net.cpp:399] conv5_1 -> conv5_1
I0305 01:27:26.869431  3878 net.cpp:141] Setting up conv5_1
I0305 01:27:26.869480  3878 net.cpp:148] Top shape: 50 512 14 14 (5017600)
I0305 01:27:26.869485  3878 net.cpp:156] Memory required for data: 5649818200
I0305 01:27:26.869500  3878 layer_factory.hpp:77] Creating layer relu5_1
I0305 01:27:26.869518  3878 net.cpp:91] Creating Layer relu5_1
I0305 01:27:26.869524  3878 net.cpp:425] relu5_1 <- conv5_1
I0305 01:27:26.869535  3878 net.cpp:386] relu5_1 -> conv5_1 (in-place)
I0305 01:27:26.869890  3878 net.cpp:141] Setting up relu5_1
I0305 01:27:26.869910  3878 net.cpp:148] Top shape: 50 512 14 14 (5017600)
I0305 01:27:26.869915  3878 net.cpp:156] Memory required for data: 5669888600
I0305 01:27:26.869920  3878 layer_factory.hpp:77] Creating layer conv5_2
I0305 01:27:26.869932  3878 net.cpp:91] Creating Layer conv5_2
I0305 01:27:26.869936  3878 net.cpp:425] conv5_2 <- conv5_1
I0305 01:27:26.869946  3878 net.cpp:399] conv5_2 -> conv5_2
I0305 01:27:26.878092  3878 net.cpp:141] Setting up conv5_2
I0305 01:27:26.878126  3878 net.cpp:148] Top shape: 50 512 14 14 (5017600)
I0305 01:27:26.878131  3878 net.cpp:156] Memory required for data: 5689959000
I0305 01:27:26.878142  3878 layer_factory.hpp:77] Creating layer relu5_2
I0305 01:27:26.878156  3878 net.cpp:91] Creating Layer relu5_2
I0305 01:27:26.878164  3878 net.cpp:425] relu5_2 <- conv5_2
I0305 01:27:26.878176  3878 net.cpp:386] relu5_2 -> conv5_2 (in-place)
I0305 01:27:26.878377  3878 net.cpp:141] Setting up relu5_2
I0305 01:27:26.878391  3878 net.cpp:148] Top shape: 50 512 14 14 (5017600)
I0305 01:27:26.878396  3878 net.cpp:156] Memory required for data: 5710029400
I0305 01:27:26.878399  3878 layer_factory.hpp:77] Creating layer conv5_3
I0305 01:27:26.878412  3878 net.cpp:91] Creating Layer conv5_3
I0305 01:27:26.878417  3878 net.cpp:425] conv5_3 <- conv5_2
I0305 01:27:26.878425  3878 net.cpp:399] conv5_3 -> conv5_3
I0305 01:27:26.885990  3878 net.cpp:141] Setting up conv5_3
I0305 01:27:26.886039  3878 net.cpp:148] Top shape: 50 512 14 14 (5017600)
I0305 01:27:26.886044  3878 net.cpp:156] Memory required for data: 5730099800
I0305 01:27:26.886059  3878 layer_factory.hpp:77] Creating layer relu5_3
I0305 01:27:26.886075  3878 net.cpp:91] Creating Layer relu5_3
I0305 01:27:26.886081  3878 net.cpp:425] relu5_3 <- conv5_3
I0305 01:27:26.886096  3878 net.cpp:386] relu5_3 -> conv5_3 (in-place)
I0305 01:27:26.886466  3878 net.cpp:141] Setting up relu5_3
I0305 01:27:26.886482  3878 net.cpp:148] Top shape: 50 512 14 14 (5017600)
I0305 01:27:26.886487  3878 net.cpp:156] Memory required for data: 5750170200
I0305 01:27:26.886492  3878 layer_factory.hpp:77] Creating layer pool5
I0305 01:27:26.886510  3878 net.cpp:91] Creating Layer pool5
I0305 01:27:26.886514  3878 net.cpp:425] pool5 <- conv5_3
I0305 01:27:26.886521  3878 net.cpp:399] pool5 -> pool5
I0305 01:27:26.886595  3878 net.cpp:141] Setting up pool5
I0305 01:27:26.886605  3878 net.cpp:148] Top shape: 50 512 7 7 (1254400)
I0305 01:27:26.886608  3878 net.cpp:156] Memory required for data: 5755187800
I0305 01:27:26.886612  3878 layer_factory.hpp:77] Creating layer fc6
I0305 01:27:26.886620  3878 net.cpp:91] Creating Layer fc6
I0305 01:27:26.886625  3878 net.cpp:425] fc6 <- pool5
I0305 01:27:26.886631  3878 net.cpp:399] fc6 -> fc6
I0305 01:27:27.172947  3878 net.cpp:141] Setting up fc6
I0305 01:27:27.173004  3878 net.cpp:148] Top shape: 50 4096 (204800)
I0305 01:27:27.173008  3878 net.cpp:156] Memory required for data: 5756007000
I0305 01:27:27.173022  3878 layer_factory.hpp:77] Creating layer relu6
I0305 01:27:27.173041  3878 net.cpp:91] Creating Layer relu6
I0305 01:27:27.173050  3878 net.cpp:425] relu6 <- fc6
I0305 01:27:27.173061  3878 net.cpp:386] relu6 -> fc6 (in-place)
I0305 01:27:27.173416  3878 net.cpp:141] Setting up relu6
I0305 01:27:27.173429  3878 net.cpp:148] Top shape: 50 4096 (204800)
I0305 01:27:27.173432  3878 net.cpp:156] Memory required for data: 5756826200
I0305 01:27:27.173436  3878 layer_factory.hpp:77] Creating layer drop6
I0305 01:27:27.173447  3878 net.cpp:91] Creating Layer drop6
I0305 01:27:27.173451  3878 net.cpp:425] drop6 <- fc6
I0305 01:27:27.173459  3878 net.cpp:386] drop6 -> fc6 (in-place)
I0305 01:27:27.173518  3878 net.cpp:141] Setting up drop6
I0305 01:27:27.173527  3878 net.cpp:148] Top shape: 50 4096 (204800)
I0305 01:27:27.173530  3878 net.cpp:156] Memory required for data: 5757645400
I0305 01:27:27.173534  3878 layer_factory.hpp:77] Creating layer fc7
I0305 01:27:27.173547  3878 net.cpp:91] Creating Layer fc7
I0305 01:27:27.173555  3878 net.cpp:425] fc7 <- fc6
I0305 01:27:27.173562  3878 net.cpp:399] fc7 -> fc7
I0305 01:27:27.215538  3878 net.cpp:141] Setting up fc7
I0305 01:27:27.215590  3878 net.cpp:148] Top shape: 50 4096 (204800)
I0305 01:27:27.215594  3878 net.cpp:156] Memory required for data: 5758464600
I0305 01:27:27.215608  3878 layer_factory.hpp:77] Creating layer relu7
I0305 01:27:27.215623  3878 net.cpp:91] Creating Layer relu7
I0305 01:27:27.215633  3878 net.cpp:425] relu7 <- fc7
I0305 01:27:27.215646  3878 net.cpp:386] relu7 -> fc7 (in-place)
I0305 01:27:27.216171  3878 net.cpp:141] Setting up relu7
I0305 01:27:27.216184  3878 net.cpp:148] Top shape: 50 4096 (204800)
I0305 01:27:27.216187  3878 net.cpp:156] Memory required for data: 5759283800
I0305 01:27:27.216192  3878 layer_factory.hpp:77] Creating layer drop7
I0305 01:27:27.216199  3878 net.cpp:91] Creating Layer drop7
I0305 01:27:27.216203  3878 net.cpp:425] drop7 <- fc7
I0305 01:27:27.216233  3878 net.cpp:386] drop7 -> fc7 (in-place)
I0305 01:27:27.216271  3878 net.cpp:141] Setting up drop7
I0305 01:27:27.216277  3878 net.cpp:148] Top shape: 50 4096 (204800)
I0305 01:27:27.216280  3878 net.cpp:156] Memory required for data: 5760103000
I0305 01:27:27.216284  3878 layer_factory.hpp:77] Creating layer fc8_oxySensitive
I0305 01:27:27.216294  3878 net.cpp:91] Creating Layer fc8_oxySensitive
I0305 01:27:27.216296  3878 net.cpp:425] fc8_oxySensitive <- fc7
I0305 01:27:27.216301  3878 net.cpp:399] fc8_oxySensitive -> fc8_oxySensitive
I0305 01:27:27.252905  3878 net.cpp:141] Setting up fc8_oxySensitive
I0305 01:27:27.252921  3878 net.cpp:148] Top shape: 50 344 (17200)
I0305 01:27:27.252924  3878 net.cpp:156] Memory required for data: 5760171800
I0305 01:27:27.252931  3878 layer_factory.hpp:77] Creating layer fc8_oxySensitive_fc8_oxySensitive_0_split
I0305 01:27:27.252938  3878 net.cpp:91] Creating Layer fc8_oxySensitive_fc8_oxySensitive_0_split
I0305 01:27:27.252943  3878 net.cpp:425] fc8_oxySensitive_fc8_oxySensitive_0_split <- fc8_oxySensitive
I0305 01:27:27.252975  3878 net.cpp:399] fc8_oxySensitive_fc8_oxySensitive_0_split -> fc8_oxySensitive_fc8_oxySensitive_0_split_0
I0305 01:27:27.252984  3878 net.cpp:399] fc8_oxySensitive_fc8_oxySensitive_0_split -> fc8_oxySensitive_fc8_oxySensitive_0_split_1
I0305 01:27:27.253042  3878 net.cpp:141] Setting up fc8_oxySensitive_fc8_oxySensitive_0_split
I0305 01:27:27.253049  3878 net.cpp:148] Top shape: 50 344 (17200)
I0305 01:27:27.253053  3878 net.cpp:148] Top shape: 50 344 (17200)
I0305 01:27:27.253057  3878 net.cpp:156] Memory required for data: 5760309400
I0305 01:27:27.253060  3878 layer_factory.hpp:77] Creating layer loss
I0305 01:27:27.253067  3878 net.cpp:91] Creating Layer loss
I0305 01:27:27.253072  3878 net.cpp:425] loss <- fc8_oxySensitive_fc8_oxySensitive_0_split_0
I0305 01:27:27.253075  3878 net.cpp:425] loss <- label_data_1_split_0
I0305 01:27:27.253088  3878 net.cpp:399] loss -> loss
…
